findbot_colab_train.mltk/findbot_colab_train.float32.tflite (tflite, 45972 bytes, 12 tensors)

arith.constant f4 [10]
00000000: ab9d adc0 a1df 7540 3a62 e5bf d1df 83be
00000010: ed6c ea3f 1def 3ac0 ba8b 4d40 7bcb a4bf
00000020: eb0c 723f 9199 78c0
-5.4254966 3.8417742 -1.7920601 -0.25756696 1.8314492 -2.9208443 3.2116532 -1.2874597
0.9455096 -3.884373

arith.constant1 f4 [10, 3, 3, 1]
00000000: 986f df3b 7d9b ceb9 eef2 cabb a52e bcbc
00000010: 3bb7 a0bc 968e 2fbc 7097 523b 08f4 523b
00000020: 6133 7fba a0fb fa3a 581b ab3a dd96 fd3b
00000030: 704f bd3b 3d24 7e3b e6b4 8e3b edaf aa3b
00000040: 3386 2e3a c24c 793b aada 0cbc 7e27 223c
00000050: dde9 783c 377d 6cbc d97b b8bb d155 3a3a
00000060: ef27 53ba 80cc 93bb ab75 e6bb 5a0b 983c
00000070: 2a11 a539 64db f7bb 55dc 063c 00bb 8bbb
00000080: f831 33bc bbe5 933b e991 02bc 9510 9cbb
00000090: 94a1 51bc b324 57bc 0903 d83c a705 87bc
000000a0: 00fe 893c 16f9 e13b dbe7 bf39 63fc 593c
000000b0: 756a e5bb f387 e03b d370 92bb ba27 0abc
000000c0: 1e3d b0bb c7da 8d3a 422e 9e3c 1733 c7bb
000000d0: b853 8bbc d67c 47bc b17d 893c 9882 d8bb
000000e0: b25d cebb 259a 803b 8f1b 423c da89 b1bb
000000f0: 1021 08bc e4cc 683c a431 533b d2d3 33bc
00000100: 0cd5 49bc 05bd aebb 99cc bbbb 8a59 06bc
00000110: d54c 5dbb 811f ab3b 7f6d 313c 269b 8a3c
00000120: 585e 9f3b 7961 16bc d8b5 7aba ff47 833c
00000130: f2fc b7bb e4d0 4ebc db71 423c bc12 0a3c
00000140: e7b6 b2bb 1d85 93ba a19a 19bc 598f 1fbc
00000150: 7202 933b 519b 7fbb b468 44bc 806f 0a3c
00000160: 0765 72bb 8fc8 eabb
0.006818723 -0.0003940723 -0.0061935103 -0.02297146 -0.019618621 -0.0107151475 0.003213372 0.003218891
-0.0009735134 0.0019148476 0.0013054414 0.0077389316 0.005777292 0.0038778924 0.004355061 0.0052089603
0.00066575705 0.0038040136 -0.008597055 0.009897111 0.015192476 -0.01443415 -0.005629998 0.00071081246
-0.0008054962 -0.0045104623 -0.00703307 0.0185601 0.0003148404 -0.007563995 0.008231242 -0.0042642355
-0.010937206 0.00451347 -0.007969358 -0.004762719 -0.012794871 -0.013131308 0.026368635 -0.016482187
0.01684475 0.0068961484 0.00036603105 0.013304803 -0.007001216 0.006852144 -0.004469016 -0.008432323
-0.0053783795 0.0010822647 0.019309167 -0.0060790884 -0.017007694 -0.012175759 0.016783567 -0.006607365
-0.0062977904 0.0039246255 0.011847391 -0.0054180445 -0.008308664 0.014209006 0.0032225633 -0.010975795
-0.012318861 -0.0053325915 -0.005731177 -0.008200059 -0.003376772 0.0052222614 0.010829329 0.016919684
0.0048635416 -0.009178513 -0.000956384 0.016025541 -0.00561487 -0.012623046 0.011867966 0.008427318
-0.0054539326 -0.0011254881 -0.009375245 -0.009738767 0.0044863755 -0.0039002488 -0.011987854 0.008449435
-0.0036986487 -0.0071650217

arith.constant3 f4 [51]
00000000: 3866 46be 2772 21bf ae12 e73e b25f 82be
00000010: d2eb 243e 796e 2e3e 94b7 b5be cd60 69be
00000020: b656 92be 42e3 b83e 885e 33be 2c32 b33d
00000030: 6b66 80bd 8c2e a93e 35fd bd3d 75ab 91bd
00000040: 639a 0abf 567f dabd 66cd d63e e235 fcbe
00000050: b5c8 d53e 343c 6c3e ec79 05be 66b9 a1be
00000060: fa60 df3c 9478 373e d562 8abe 4837 d33e
00000070: ec44 e3be eb94 c3bd feea d6bd f9b3 563d
00000080: 917e 1d3e ccfc a63c 190c babe 84dd 153e
00000090: 7242 ee3d f7c3 b8be a22b 23be ae33 4f3f
000000a0: 323b 5fbe afc1 f2bd ad23 f2bf 63e8 9ebe
000000b0: d0ea dabe 9754 9ebe d016 293e 2292 7fbe
000000c0: 9760 fdbe 47f5 a3bc 226e c53f
-0.19374931 -0.6306481 0.4513144 -0.25463635 0.16105583 0.1703433 -0.35491621 -0.22790833
-0.2858178 0.36110884 -0.1751653 0.08749804 -0.06269535 0.33043325 0.09276811 -0.07112781
-0.54141825 -0.10668819 0.41953582 -0.4925986 0.4175469 0.2306984 -0.13034791 -0.3158676
0.027267922 0.1791709 -0.27028528 0.41253114 -0.4438852 -0.09549888 -0.1049404 0.05241773
0.15380313 0.020384215 -0.36337355 0.14635283 0.11633767 -0.3608701 -0.15934613 0.8093823
-0.21799925 -0.118533485 -1.8917137 -0.31036672 -0.42757273 -0.30923912 0.16512609 -0.24958089
-0.49487755 -0.020014418 1.5424235

arith.constant4 f4 [20]
00000000: 65e7 50bf f5f9 713f 51d1 c7be 609b 9cbf
00000010: 3cec 30bd 9299 bf3e 8148 70bf 726b 0b3e
00000020: 67dd 22bf 8a55 c2bd 6700 323e 4467 8cbd
00000030: 2237 5b3f 6aba debe bcf1 833b 9c42 c7be
00000040: b334 d6be 2f8b 253f 206a 66bf 88dd 44bf
-0.8160308 0.9452203 -0.39026883 -1.2234917 -0.04319404 0.37421852 -0.9386063 0.13615206
-0.63619083 -0.094889715 0.17382966 -0.06855634 0.85631 -0.43501598 0.0040266197 -0.38918006
-0.4183708 0.646655 -0.90005684 -0.7690053

arith.constant5 f4 [40]
00000000: 91f7 243e 569d aa3f c4fa 963d 125f 073e
00000010: 3a7e 3dbf ebe6 a9bd 0c50 94be 4820 6f3f
00000020: bda9 2ebf 74ec 023f b5ad 183e 3b41 48bd
00000030: a02d 0b3f dbc2 eb3e ca99 b0be 0588 c73e
00000040: 4ffb a1be 7124 023f dbdc 223e 1661 c7bd
00000050: bce9 313d 515a 11bf 3763 e63d 6ddc e3be
00000060: 42a2 f63e 5408 17be 6ccc 043f bd08 483f
00000070: a849 763e 7418 c03e 3b44 c53e cc91 8c3e
00000080: ed5b 1f3d eddf 81bf 1b4d a7bf e92d 853d
00000090: ee66 583d 4564 023e 68b7 0ebf cc95 183e
0.16110064 1.3329265 0.073720485 0.1321986 -0.7402073 -0.08295997 -0.2896732 0.9340863
-0.6822775 0.5114205 0.14910014 -0.048890334 0.54366493 0.460471 -0.34492332 0.38970962
-0.31637046 0.50836855 0.15904562 -0.097353145 0.043435797 -0.56778437 0.112493925 -0.4450411
0.48170668 -0.1474927 0.51874423 0.78138334 0.24051535 0.37518656 0.38528618 0.27454984
0.038906027 -1.0146462 -1.3070406 0.06502897 0.052832536 0.12733562 -0.55748606 0.14900893

arith.constant6 f4 [40]
00000000: 2332 42be 13a7 23bf ffad af3d e0e5 803f
00000010: bd9b fdbe 374a 3cbf 6dd5 15bf ddd1 bdbd
00000020: 53a6 cebc 5db8 003f 72c2 de3e f638 e2be
00000030: 1678 f03d 69b0 483e 0589 103f 59bc ab3e
00000040: 3992 003f 635a 003f e33a 913f 7c3c 543e
00000050: f29d 77bc 2d6a 04bd 093f 383e 26ff c43d
00000060: b805 1d3f 50f1 b13e c155 813e dd83 d13e
00000070: 068f 853e 4c17 0cbf 428e 733f 0a81 e13e
00000080: 4d0d 6abd f1aa 93be e27b 843f 46c8 4e3f
00000090: ef01 123f 1ba0 793e 0847 cf3e d0bb 493e
-0.18964438 -0.6392681 0.08578109 1.0070152 -0.4953288 -0.7355074 -0.58528787 -0.09268544
-0.025225794 0.50281316 0.43507725 -0.44184083 0.117416546 0.19598545 0.56459075 0.33542135
0.5022312 0.5013792 1.1346096 0.20726198 -0.015113341 -0.03232782 0.17992796 0.09618978
0.6133685 0.3475442 0.25260738 0.40920916 0.2608568 -0.5472305 0.95138943 0.44043761
-0.05714159 -0.28841355 1.0350306 0.80774343 0.570342 0.24377482 0.4048388 0.19700551

arith.constant7 f4 [20]
00000000: 45e3 a5be 212e 9f3d f47c 0dc0 469a 933f
00000010: 0b0c 86be 0f17 343f 2c08 803f 596c 1840
00000020: 40de 03be c8f6 9c3f ddb8 8d3e efb2 9f3f
00000030: 70cf 0240 98e9 e13e 3fc0 6b3f 58be 1ebe
00000040: bb30 b33f cefd 11be df91 723f 018f 9d3f
-0.32399955 0.0777247 -2.2107515 1.1531456 -0.26181063 0.70347685 1.0002494 2.381613
-0.1287775 1.2262812 0.27680102 1.2476481 2.043911 0.4412353 0.9209022 -0.15502298
1.3999246 -0.14256975 0.9475383 1.2309266

tfl.pseudo_qconst i1 [20, 3, 3, 40]
00000000: 29ed 0854 ecfc 1af5 def6 56d1 f145 cef8
00000010: 0b16 36c7 e9e1 0b2d 09f5 d423 060a 2714
00000020: eef8 fa44 ec1b 1f0f 0816 ee50 2003 04fc
00000030: f2da d216 06f5 e1f4 1dde 3248 d0fc 19d3
00000040: e3fd 2a03 e912 cc32 1115 31ec c901 e031
00000050: 1be5 b308 d414 eb4e 1e14 e1c1 4101 0e03
00000060: 312f d125 f12f 12f2 f3ef f9e4 f7ea f1eb
00000070: 06e2 10eb e20d 371c ece9 e811 91f9 1511
00000080: e6bf 1eac 3e11 21e9 c012 53cf feee 13cf
00000090: 3fd8 f3cf 00c2 ecd6 01e9 6a3c f006 1f2f
000000a0: e70e eb06 f322 1521 e7da e0f9 27c8 d7e2
000000b0: 120c 1b13 21f5 24c5 eede 0d2e dd30 05df
000000c0: f638 23d0 e319 de37 46c9 f309 d626 0df9
000000d0: c6cc e7a5 04eb b616 0205 faf3 1644 18de
000000e0: 2cca e3d8 f122 27f2 f8ec 28e6 05d8 0ce1
000000f0: 00ec 1e7f caf4 04ed 13ad 0915 65ff e0c4
41 -19 8 84 -20 -4 26 -11
-34 -10 86 -47 -15 69 -50 -8
11 22 54 -57 -23 -31 11 45
9 -11 -44 35 6 10 39 20
-18 -8 -6 68 -20 27 31 15
8 22 -18 80 32 3 4 -4
-14 -38 -46 22 6 -11 -31 -12
29 -34 50 72 -48 -4 25 -45
-29 -3 42 3 -23 18 -52 50
17 21 49 -20 -55 1 -32 49
27 -27 -77 8 -44 20 -21 78
30 20 -31 -63 65 1 14 3
49 47 -47 37 -15 47 18 -14
-13 -17 -7 -28 -9 -22 -15 -21
6 -30 16 -21 -30 13 55 28
-20 -23 -24 17 -111 -7 21 17
-26 -65 30 -84 62 17 33 -23
-64 18 83 -49 -2 -18 19 -49
63 -40 -13 -49 0 -62 -20 -42
1 -23 106 60 -16 6 31 47
-25 14 -21 6 -13 34 21 33
-25 -38 -32 -7 39 -56 -41 -30
18 12 27 19 33 -11 36 -59
-18 -34 13 46 -35 48 5 -33
-10 56 35 -48 -29 25 -34 55
70 -55 -13 9 -42 38 13 -7
-58 -52 -25 -91 4 -21 -74 22
2 5 -6 -13 22 68 24 -34
44 -54 -29 -40 -15 34 39 -14
-8 -20 40 -26 5 -40 12 -31
0 -20 30 127 -54 -12 4 -19
19 -83 9 21 101 -1 -32 -60

tfl.pseudo_qconst1 i1 [40, 3, 3, 40]
00000000: ed0e 22df 06c7 20fd fb09 423e 134a d80a
00000010: da00 1c0c e6fb ed23 220c 35f6 e2e7 f30f
00000020: 00da 1200 f01d 12c9 00da f92e 231c 08e8
00000030: f1fa 29df eff1 3624 fbbf ed07 050b eafc
00000040: 062f 2a03 12fd cd06 1acd c2e5 e408 fded
00000050: 0715 e6ef 0e0f e4f5 1a00 0bef 2000 022d
00000060: e5c4 f109 18c6 17e5 efe0 dd22 eb13 fa05
00000070: 19ee 040d 0f05 03f6 2228 fb89 0e09 c6e9
00000080: 5531 2cd5 2730 d01c 0646 232e bbca e577
00000090: 2d0a f2da 0a15 e640 f0cf a1b1 a8ff 21ff
000000a0: 06f8 f13b 1613 3efa 1314 10c3 e2f4 5d1f
000000b0: d4c3 df28 0eb8 f0f3 e1ff f3f9 09ec 811b
000000c0: 12e5 bdf2 fc06 19ec e314 e510 251c c4ed
000000d0: 04e7 0710 0024 eb41 efcf 010e 09f6 2ee9
000000e0: f0c1 0b10 371a 16f5 0301 1ce1 2042 3b27
000000f0: 4b2b 0ed7 f3f2 f4df 50df 0e01 14ed d60d
-19 14 34 -33 6 -57 32 -3
-5 9 66 62 19 74 -40 10
-38 0 28 12 -26 -5 -19 35
34 12 53 -10 -30 -25 -13 15
0 -38 18 0 -16 29 18 -55
0 -38 -7 46 35 28 8 -24
-15 -6 41 -33 -17 -15 54 36
-5 -65 -19 7 5 11 -22 -4
6 47 42 3 18 -3 -51 6
26 -51 -62 -27 -28 8 -3 -19
7 21 -26 -17 14 15 -28 -11
26 0 11 -17 32 0 2 45
-27 -60 -15 9 24 -58 23 -27
-17 -32 -35 34 -21 19 -6 5
25 -18 4 13 15 5 3 -10
34 40 -5 -119 14 9 -58 -23
85 49 44 -43 39 48 -48 28
6 70 35 46 -69 -54 -27 119
45 10 -14 -38 10 21 -26 64
-16 -49 -95 -79 -88 -1 33 -1
6 -8 -15 59 22 19 62 -6
19 20 16 -61 -30 -12 93 31
-44 -61 -33 40 14 -72 -16 -13
-31 -1 -13 -7 9 -20 -127 27
18 -27 -67 -14 -4 6 25 -20
-29 20 -27 16 37 28 -60 -19
4 -25 7 16 0 36 -21 65
-17 -49 1 14 9 -10 46 -23
-16 -63 11 16 55 26 22 -11
3 1 28 -31 32 66 59 39
75 43 14 -41 -13 -14 -12 -33
80 -33 14 1 20 -19 -42 13

tfl.pseudo_qconst2 i1 [40, 3, 3, 20]
00000000: 0610 f6e4 5423 421a 2d18 c0f2 f4e5 180c
00000010: 4840 e620 fd42 cf25 2054 5be1 35c5 f7f4
00000020: 28d7 5b14 34f0 ac14 1d18 f548 0b16 49d1
00000030: 08ed 1f22 14ea 3a24 05a3 ba51 001e fa15
00000040: 39aa d0d4 2cfc f3e3 c8eb ba22 1821 ead5
00000050: d203 bc10 3dcc 05ea 50d7 ebb5 e9f3 15d6
00000060: 32f9 c4ed 02ed db65 4c17 22e4 46fc 0fd8
00000070: 32bd 2d05 14d0 8166 2022 0f2b e4ed 0c1d
00000080: efd2 0aff cbf1 bb15 c727 001a 0832 e819
00000090: c623 15ee d8cf 38ad eef7 c0f1 c0d9 1207
000000a0: 16dd e1f2 eafe f802 1506 1de1 0ae7 ce09
000000b0: ccaf 9c13 2415 0905 bc97 2ff6 e30c 33e1
000000c0: 2b14 de0b 48de d9d8 f0e4 bf01 2918 0506
000000d0: 0cdc 07d2 fcd9 e3d3 35f4 2dc6 20dd 00ee
000000e0: fd6d 05f0 30ed e1d9 db04 cce3 1aec 3ef3
000000f0: 2c7f df43 34fa 78d0 f9e3 551c 230a 13fd
6 16 -10 -28 84 35 66 26
45 24 -64 -14 -12 -27 24 12
72 64 -26 32 -3 66 -49 37
32 84 91 -31 53 -59 -9 -12
40 -41 91 20 52 -16 -84 20
29 24 -11 72 11 22 73 -47
8 -19 31 34 20 -22 58 36
5 -93 -70 81 0 30 -6 21
57 -86 -48 -44 44 -4 -13 -29
-56 -21 -70 34 24 33 -22 -43
-46 3 -68 16 61 -52 5 -22
80 -41 -21 -75 -23 -13 21 -42
50 -7 -60 -19 2 -19 -37 101
76 23 34 -28 70 -4 15 -40
50 -67 45 5 20 -48 -127 102
32 34 15 43 -28 -19 12 29
-17 -46 10 -1 -53 -15 -69 21
-57 39 0 26 8 50 -24 25
-58 35 21 -18 -40 -49 56 -83
-18 -9 -64 -15 -64 -39 18 7
22 -35 -31 -14 -22 -2 -8 2
21 6 29 -31 10 -25 -50 9
-52 -81 -100 19 36 21 9 5
-68 -105 47 -10 -29 12 51 -31
43 20 -34 11 72 -34 -39 -40
-16 -28 -65 1 41 24 5 6
12 -36 7 -46 -4 -39 -29 -45
53 -12 45 -58 32 -35 0 -18
-3 109 5 -16 48 -19 -31 -39
-37 4 -52 -29 26 -20 62 -13
44 127 -33 67 52 -6 120 -48
-7 -29 85 28 35 10 19 -3

tfl.pseudo_qconst3 i1 [20, 3, 3, 10]
00000000: 2d5b f244 0e6d 32ec 2b00 3224 26d4 194b
00000010: e235 dbe7 f306 0eea fce1 0f29 0683 6778
00000020: df3d 2f5a 1d0b 4cc5 f6f7 cc05 00fa cb37
00000030: cc9f 15db d8f4 9bcc d109 d0ba 2f2a 4e29
00000040: 0441 0ffd 07f4 155f a8b9 2318 e940 cbea
00000050: f108 98d1 bebc dcfa f881 dd23 d10b 11f7
00000060: d413 e9ae f50d fe29 1528 f8d5 04d7 dcd2
00000070: e714 e51c e120 e9c1 3601 e9f4 c415 3d2e
00000080: 61ed 2326 04f3 e119 fb21 e6bf 6681 19ed
00000090: e125 c5d4 deeb cb09 f8be eb13 2cf2 c4d6
000000a0: 4057 dfa5 e1d5 4e36 18c0 38ee 81ad b8f4
000000b0: 2555 40ff 73f8 03ea 0bfe e72d c0fd 5414
000000c0: 010e 07f7 e436 141f 5c29 2114 a115 d733
000000d0: 2e34 38ff fe0f 0819 f125 f413 500b f90d
000000e0: 0d20 fe23 1829 240f 28fd d32f 0109 0efb
000000f0: 4eec d6fa e97f fa0c e408 2f04 19f7 0127
45 91 -14 68 14 109 50 -20
43 0 50 36 38 -44 25 75
-30 53 -37 -25 -13 6 14 -22
-4 -31 15 41 6 -125 103 120
-33 61 47 90 29 11 76 -59
-10 -9 -52 5 0 -6 -53 55
-52 -97 21 -37 -40 -12 -101 -52
-47 9 -48 -70 47 42 78 41
4 65 15 -3 7 -12 21 95
-88 -71 35 24 -23 64 -53 -22
-15 8 -104 -47 -66 -68 -36 -6
-8 -127 -35 35 -47 11 17 -9
-44 19 -23 -82 -11 13 -2 41
21 40 -8 -43 4 -41 -36 -46
-25 20 -27 28 -31 32 -23 -63
54 1 -23 -12 -60 21 61 46
97 -19 35 38 4 -13 -31 25
-5 33 -26 -65 102 -127 25 -19
-31 37 -59 -44 -34 -21 -53 9
-8 -66 -21 19 44 -14 -60 -42
64 87 -33 -91 -31 -43 78 54
24 -64 56 -18 -127 -83 -72 -12
37 85 64 -1 115 -8 3 -22
11 -2 -25 45 -64 -3 84 20
1 14 7 -9 -28 54 20 31
92 41 33 20 -95 21 -41 51
46 52 56 -1 -2 15 8 25
-15 37 -12 19 80 11 -7 13
13 32 -2 35 24 41 36 15
40 -3 -45 47 1 9 14 -5
78 -20 -42 -6 -23 127 -6 12
-28 8 47 4 25 -9 1 39

tfl.pseudo_qconst4 i1 [51, 80] scale=0.010006771 zero_point=0
00000000: 0e0f e80d e8f2 0118 d8d1 a916 f6f3 e2f9
00000010: 0d21 1deb f5fe cf15 0307 fcda 0fbc cdc4
00000020: 1313 d519 1519 cb04 e20e 120a 1205 c2d9
00000030: e909 17fe c5e3 0e15 13f0 bbe3 fc04 22fe
00000040: d10e f90a da16 f104 a609 f9e9 0800 ef11
00000050: f603 16cf ede9 141e 2521 0cec 0fb2 0923
00000060: f8fa f8df 05e0 e2f3 fdc6 d9ee 0412 e6e7
00000070: 0cc4 1e06 2405 20e7 ef0f d500 020d eb06
00000080: d206 1206 130e e1d0 b3de 0508 1a15 fc06
00000090: dad4 b4a6 bff1 1cfd 1b1e ecf1 07e6 eef7
000000a0: 11ff 120c c617 1217 f7fa 14f6 a5d2 edf0
000000b0: 17f7 fc0a 15d0 fade bfd4 aec8 e4fd e914
000000c0: c51c c819 1818 b0ea a5e1 0ad4 04ba f517
000000d0: ee16 e2f0 b7ff cf16 fc10 bc0c f705 1209
000000e0: d009 d6db bc1f 1d8f fa23 ba19 03e8 1016
000000f0: 020d 0cbe e00d de13 10f4 edd3 daeb 05f4
0.1400948 0.15010157 -0.24016252 0.13008803 -0.24016252 -0.1400948 0.010006771 0.24016252
-0.40027085 -0.47031826 -0.87058914 0.22014897 -0.10006771 -0.13008803 -0.30020314 -0.0700474
0.13008803 0.33022347 0.29019636 -0.2101422 -0.11007448 -0.020013543 -0.4903318 0.2101422
0.030020315 0.0700474 -0.040027086 -0.3802573 0.15010157 -0.68046045 -0.51034534 -0.6004063
0.19012865 0.19012865 -0.43029118 0.25016928 0.2101422 0.25016928 -0.5303589 0.040027086
-0.30020314 0.1400948 0.18012188 0.10006771 0.18012188 0.050033856 -0.6204198 -0.3902641
-0.23015574 0.09006094 0.23015574 -0.020013543 -0.5903995 -0.29019636 0.1400948 0.2101422
0.19012865 -0.16010834 -0.69046724 -0.29019636 -0.040027086 0.040027086 0.34023023 -0.020013543
-0.47031826 0.1400948 -0.0700474 0.10006771 -0.3802573 0.22014897 -0.15010157 0.040027086
-0.90060943 0.09006094 -0.0700474 -0.23015574 0.08005417 0.0 -0.17011511 0.17011511
-0.10006771 0.030020315 0.22014897 -0.4903318 -0.19012865 -0.23015574 0.20013542 0.30020314
0.37025055 0.33022347 0.12008126 -0.20013542 0.15010157 -0.7805282 0.09006094 0.350237
-0.08005417 -0.06004063 -0.08005417 -0.33022347 0.050033856 -0.3202167 -0.30020314 -0.13008803
-0.030020315 -0.5803927 -0.3902641 -0.18012188 0.040027086 0.18012188 -0.26017606 -0.25016928
0.12008126 -0.6004063 0.30020314 0.06004063 0.36024377 0.050033856 0.3202167 -0.25016928
-0.17011511 0.15010157 -0.43029118 0.0 0.020013543 0.13008803 -0.2101422 0.06004063
-0.46031147 0.06004063 0.18012188 0.06004063 0.19012865 0.1400948 -0.3102099 -0.48032504
-0.7705214 -0.34023023 0.050033856 0.08005417 0.26017606 0.2101422 -0.040027086 0.06004063
-0.3802573 -0.44029793 -0.7605146 -0.90060943 -0.65044016 -0.15010157 0.2801896 -0.030020315
0.27018282 0.30020314 -0.20013542 -0.15010157 0.0700474 -0.26017606 -0.18012188 -0.09006094
0.17011511 -0.010006771 0.18012188 0.12008126 -0.5803927 0.23015574 0.18012188 0.23015574
-0.09006094 -0.06004063 0.20013542 -0.10006771 -0.9106162 -0.46031147 -0.19012865 -0.16010834
0.23015574 -0.09006094 -0.040027086 0.10006771 0.2101422 -0.48032504 -0.06004063 -0.34023023
-0.65044016 -0.44029793 -0.82055527 -0.5603792 -0.2801896 -0.030020315 -0.23015574 0.20013542
-0.5903995 0.2801896 -0.5603792 0.25016928 0.24016252 0.24016252 -0.8005417 -0.22014897
-0.9106162 -0.3102099 0.10006771 -0.44029793 0.040027086 -0.700474 -0.11007448 0.23015574
-0.18012188 0.22014897 -0.30020314 -0.16010834 -0.7304943 -0.010006771 -0.4903318 0.22014897
-0.040027086 0.16010834 -0.68046045 0.12008126 -0.09006094 0.050033856 0.18012188 0.09006094
-0.48032504 0.09006094 -0.4202844 -0.37025055 -0.68046045 0.3102099 0.29019636 -1.1307652
-0.06004063 0.350237 -0.700474 0.25016928 0.030020315 -0.24016252 0.16010834 0.22014897
0.020013543 0.13008803 0.12008126 -0.66044694 -0.3202167 0.13008803 -0.34023023 0.19012865
0.16010834 -0.12008126 -0.19012865 -0.45030472 -0.3802573 -0.2101422 0.050033856 -0.12008126
